저장되어 있는 전처리된 데이터가 있습니다. 해당 데이터를 불러오는 중..
불러오기 완료
CtmpGIN(
  (entity_embedding_layer): EntityEmbeddingBatch3(
    (embedding_layer): Embedding(1143, 32)
  )
  (embed_los): EntityEmbeddingBatch3(
    (embedding_layer): Embedding(38, 8)
  )
  (gin_1): ModuleList(
    (0-1): 2 x GINConv(nn=Sequential(
      (0): Linear(in_features=32, out_features=32, bias=True)
      (1): LayerNorm((32,), eps=1e-05, elementwise_affine=True)
      (2): ReLU()
      (3): Linear(in_features=32, out_features=32, bias=True)
    ))
  )
  (gin_2): ModuleList(
    (0-1): 2 x GINEConv(nn=Sequential(
      (0): Linear(in_features=32, out_features=32, bias=True)
      (1): LayerNorm((32,), eps=1e-05, elementwise_affine=True)
      (2): ReLU()
      (3): Linear(in_features=32, out_features=32, bias=True)
    ))
  )
  (proj_ad): Linear(in_features=32, out_features=32, bias=True)
  (proj_dis): Linear(in_features=32, out_features=32, bias=True)
  (proj_merged): Linear(in_features=32, out_features=32, bias=True)
  (gated_fusion): GatedFusion(
    (score): Sequential(
      (0): Linear(in_features=96, out_features=96, bias=True)
      (1): ReLU()
      (2): Dropout(p=0.2, inplace=False)
      (3): Linear(in_features=96, out_features=3, bias=True)
    )
    (dropout): Dropout(p=0.2, inplace=False)
  )
  (classifier_b): Sequential(
    (0): Linear(in_features=32, out_features=64, bias=True)
    (1): ReLU()
    (2): Dropout(p=0.2, inplace=False)
    (3): Linear(in_features=64, out_features=1, bias=True)
  )
)
학습 가능한 파라미터 개수: 61,112
Train Set Size: 975896
Valid Set Size: 209119
Test Set Size: 209123
torch.Size([2, 36864])
logits mean/std: -0.181298166513443 2.013927459716797
probs min/max/mean: 0.0449240505695343 0.9925135970115662 0.43861979246139526
y label mean: 0.3125
pos logits mean: 0.823254406452179
neg logits mean: -0.6379130482673645
Valid preds label counts: tensor([18, 14], device='mps:0')
…
🎉 New best validation loss: 0.4383. Saving model...

[Epoch 1/100]
  [Train] LR: 0.001000 | Loss: 0.4546
  [Valid] Loss: 0.4383 | Acc: 0.7804, Prec: 0.7776, Rec: 0.7787, F1: 0.7781, AUC: 0.8705
Valid preds label counts: tensor([16, 16], device='mps:0')
Valid true label counts: tensor([19, 13], device='mps:0')
🎉 New best validation loss: 0.3449. Saving model...

[Epoch 5/100]
  [Train] LR: 0.001000 | Loss: 0.3483
  [Valid] Loss: 0.3449 | Acc: 0.8416, Prec: 0.8393, Rec: 0.8412, F1: 0.8401, AUC: 0.9244
저장되어 있는 전처리된 데이터가 있습니다. 해당 데이터를 불러오는 중..
불러오기 완료
CtmpGIN(
  (entity_embedding_layer): EntityEmbeddingBatch3(
    (embedding_layer): Embedding(1143, 32)
  )
  (embed_los): EntityEmbeddingBatch3(
    (embedding_layer): Embedding(38, 8)
  )
  (gin_1): ModuleList(
    (0-1): 2 x GINConv(nn=Sequential(
      (0): Linear(in_features=32, out_features=32, bias=True)
      (1): LayerNorm((32,), eps=1e-05, elementwise_affine=True)
      (2): ReLU()
      (3): Linear(in_features=32, out_features=32, bias=True)
    ))
  )
  (gin_2): ModuleList(
    (0-1): 2 x GINEConv(nn=Sequential(
      (0): Linear(in_features=32, out_features=32, bias=True)
      (1): LayerNorm((32,), eps=1e-05, elementwise_affine=True)
      (2): ReLU()
      (3): Linear(in_features=32, out_features=32, bias=True)
    ))
  )
  (proj_ad): Linear(in_features=32, out_features=32, bias=True)
  (proj_dis): Linear(in_features=32, out_features=32, bias=True)
  (proj_merged): Linear(in_features=32, out_features=32, bias=True)
  (gated_fusion): GatedFusion(
    (score): Sequential(
      (0): Linear(in_features=96, out_features=96, bias=True)
      (1): ReLU()
      (2): Dropout(p=0.2, inplace=False)
      (3): Linear(in_features=96, out_features=3, bias=True)
    )
    (dropout): Dropout(p=0.2, inplace=False)
  )
  (classifier_b): Sequential(
    (0): Linear(in_features=32, out_features=64, bias=True)
    (1): ReLU()
    (2): Dropout(p=0.2, inplace=False)
    (3): Linear(in_features=64, out_features=1, bias=True)
  )
)
학습 가능한 파라미터 개수: 61,112
Train Set Size: 975896
Valid Set Size: 209119
Test Set Size: 209123
torch.Size([2, 26880])
logits mean/std: 2.268981456756592 1.7791776657104492
probs min/max/mean: 0.23011039197444916 0.9990034699440002 0.8203135132789612
y label mean: 0.3125
pos logits mean: 1.8674671649932861
neg logits mean: 2.4514877796173096
저장되어 있는 전처리된 데이터가 있습니다. 해당 데이터를 불러오는 중..
불러오기 완료
CtmpGIN(
  (entity_embedding_layer): EntityEmbeddingBatch3(
    (embedding_layer): Embedding(1143, 32)
  )
  (embed_los): EntityEmbeddingBatch3(
    (embedding_layer): Embedding(38, 8)
  )
  (gin_1): ModuleList(
    (0-1): 2 x GINConv(nn=Sequential(
      (0): Linear(in_features=32, out_features=32, bias=True)
      (1): LayerNorm((32,), eps=1e-05, elementwise_affine=True)
      (2): ReLU()
      (3): Linear(in_features=32, out_features=32, bias=True)
    ))
  )
  (gin_2): ModuleList(
    (0): GINEConv(nn=Sequential(
      (0): Linear(in_features=32, out_features=32, bias=True)
      (1): LayerNorm((32,), eps=1e-05, elementwise_affine=True)
      (2): ReLU()
      (3): Linear(in_features=32, out_features=32, bias=True)
    ))
  )
  (proj_ad): Linear(in_features=32, out_features=32, bias=True)
  (proj_dis): Linear(in_features=32, out_features=32, bias=True)
  (proj_merged): Linear(in_features=32, out_features=32, bias=True)
  (gated_fusion): GatedFusion(
    (score): Sequential(
      (0): Linear(in_features=96, out_features=96, bias=True)
      (1): ReLU()
      (2): Dropout(p=0.2, inplace=False)
      (3): Linear(in_features=96, out_features=3, bias=True)
    )
    (dropout): Dropout(p=0.2, inplace=False)
  )
  (classifier_b): Sequential(
    (0): Linear(in_features=32, out_features=64, bias=True)
    (1): ReLU()
    (2): Dropout(p=0.2, inplace=False)
    (3): Linear(in_features=64, out_features=1, bias=True)
  )
)
학습 가능한 파라미터 개수: 58,647
Train Set Size: 975896
Valid Set Size: 209119
Test Set Size: 209123
torch.Size([2, 26880])
logits mean/std: -0.009352553635835648 0.03293139114975929
probs min/max/mean: 0.4847835898399353 0.5161412358283997 0.4976623058319092
y label mean: 0.3125
pos logits mean: 0.00044357814476825297
neg logits mean: -0.013805340975522995
Valid preds label counts: tensor([17, 15], device='mps:0')
…
