저장되어 있는 전처리된 데이터가 있습니다. 해당 데이터를 불러오는 중..
불러오기 완료
Train Set Size: 975896
Valid Set Size: 209119
Test Set Size: 209123
GinGru(
  (dropout_gin_out): Dropout(p=0.2, inplace=False)
  (dropout_after_gru): Dropout(p=0.2, inplace=False)
  (entity_embedding_layer): EntityEmbeddingBatch3(
    (embedding_layer): Embedding(1143, 32)
  )
  (gin_layers): ModuleList(
    (0): GINConv(nn=Sequential(
      (0): Linear(in_features=33, out_features=32, bias=True)
      (1): LayerNorm((32,), eps=1e-05, elementwise_affine=True)
      (2): ReLU()
      (3): Dropout(p=0.2, inplace=False)
      (4): Linear(in_features=32, out_features=32, bias=True)
    ))
    (1): GINConv(nn=Sequential(
      (0): Linear(in_features=32, out_features=32, bias=True)
      (1): LayerNorm((32,), eps=1e-05, elementwise_affine=True)
      (2): ReLU()
      (3): Dropout(p=0.2, inplace=False)
      (4): Linear(in_features=32, out_features=32, bias=True)
    ))
  )
  (gru_layer): GRU(64, 64)
  (classifier_b): Sequential(
    (0): Linear(in_features=64, out_features=128, bias=True)
    (1): ReLU()
    (2): Dropout(p=0.2, inplace=False)
    (3): Linear(in_features=128, out_features=1, bias=True)
  )
  (gin_nn_input): Sequential(
    (0): Linear(in_features=33, out_features=32, bias=True)
    (1): LayerNorm((32,), eps=1e-05, elementwise_affine=True)
    (2): ReLU()
    (3): Dropout(p=0.2, inplace=False)
    (4): Linear(in_features=32, out_features=32, bias=True)
  )
  (gin_nn): Sequential(
    (0): Linear(in_features=32, out_features=32, bias=True)
    (1): LayerNorm((32,), eps=1e-05, elementwise_affine=True)
    (2): ReLU()
    (3): Dropout(p=0.2, inplace=False)
    (4): Linear(in_features=32, out_features=32, bias=True)
  )
)
학습 가능한 파라미터 개수: 74,371
저장되어 있는 전처리된 데이터가 있습니다. 해당 데이터를 불러오는 중..
불러오기 완료
Train Set Size: 975896
Valid Set Size: 209119
Test Set Size: 209123
GinGru(
  (dropout_gin_out): Dropout(p=0.2, inplace=False)
  (dropout_after_gru): Dropout(p=0.2, inplace=False)
  (entity_embedding_layer): EntityEmbeddingBatch3(
    (embedding_layer): Embedding(1143, 32)
  )
  (gin_layers): ModuleList(
    (0): GINConv(nn=Sequential(
      (0): Linear(in_features=33, out_features=32, bias=True)
      (1): LayerNorm((32,), eps=1e-05, elementwise_affine=True)
      (2): ReLU()
      (3): Dropout(p=0.2, inplace=False)
      (4): Linear(in_features=32, out_features=32, bias=True)
    ))
    (1): GINConv(nn=Sequential(
      (0): Linear(in_features=32, out_features=32, bias=True)
      (1): LayerNorm((32,), eps=1e-05, elementwise_affine=True)
      (2): ReLU()
      (3): Dropout(p=0.2, inplace=False)
      (4): Linear(in_features=32, out_features=32, bias=True)
    ))
  )
  (gru_layer): GRU(64, 64)
  (classifier_b): Sequential(
    (0): Linear(in_features=64, out_features=128, bias=True)
    (1): ReLU()
    (2): Dropout(p=0.2, inplace=False)
    (3): Linear(in_features=128, out_features=1, bias=True)
  )
  (gin_nn_input): Sequential(
    (0): Linear(in_features=33, out_features=32, bias=True)
    (1): LayerNorm((32,), eps=1e-05, elementwise_affine=True)
    (2): ReLU()
    (3): Dropout(p=0.2, inplace=False)
    (4): Linear(in_features=32, out_features=32, bias=True)
  )
  (gin_nn): Sequential(
    (0): Linear(in_features=32, out_features=32, bias=True)
    (1): LayerNorm((32,), eps=1e-05, elementwise_affine=True)
    (2): ReLU()
    (3): Dropout(p=0.2, inplace=False)
    (4): Linear(in_features=32, out_features=32, bias=True)
  )
)
학습 가능한 파라미터 개수: 74,371

[Resume] Loaded: /Users/jeong-yunseong/Documents/programming/Phase_2/checkpoints/gingru/real/1218_gingru_epoch_37_loss_0.3287.pth
[Resume] start_epoch=38, best_val_loss=0.328680


[Epoch 38/100]
  [Train] LR: 0.000010 | Loss: 0.3365
  [Valid] Loss: 0.3287 | Acc: 0.8583, Prec: 0.8576, Rec: 0.8547, F1: 0.8559, AUC: 0.9319

[Epoch 39/100]
…
