…
device = torch.device('cpu')
    BATCH_SIZE = 32
    embedding_dim = 32
    gin_hidden_channel = 32
    train_eps = True
    gin_layers = 3
    gru_hidden_channel = 64
    decision_threshold = 0.5

    EPOCH = 100
    scheduler_patience = 5
    early_stopping_patience = 10
    learning_rate = 0.001

    sample = False

저장되어 있는 전처리된 데이터가 있습니다. 해당 데이터를 불러오는 중..
불러오기 완료
GinGru(
  (dropout_mlp): Dropout(p=0.2, inplace=False)
  (dropout_gin_out): Dropout(p=0.2, inplace=False)
  (dropout_after_gru): Dropout(p=0.2, inplace=False)
  (entity_embedding_layer): EntityEmbeddingBatch3(
    (embedding_layer): Embedding(1143, 32)
  )
  (gin_layers): ModuleList(
    (0-2): 3 x GINConv(nn=Sequential(
      (0): Linear(in_features=32, out_features=32, bias=True)
      (1): LayerNorm((32,), eps=1e-05, elementwise_affine=True)
      (2): ReLU()
      (3): Dropout(p=0.2, inplace=False)
      (4): Linear(in_features=32, out_features=32, bias=True)
    ))
  )
  (gru_layer): GRU(96, 64)
  (classifier_b): Sequential(
    (0): Linear(in_features=64, out_features=128, bias=True)
    (1): ReLU()
    (2): Dropout(p=0.2, inplace=False)
    (3): Linear(in_features=128, out_features=1, bias=True)
  )
  (gin_nn_input): Sequential(
    (0): Linear(in_features=32, out_features=32, bias=True)
    (1): LayerNorm((32,), eps=1e-05, elementwise_affine=True)
    (2): ReLU()
    (3): Dropout(p=0.2, inplace=False)
    (4): Linear(in_features=32, out_features=32, bias=True)
  )
  (gin_nn): Sequential(
    (0): Linear(in_features=32, out_features=32, bias=True)
    (1): LayerNorm((32,), eps=1e-05, elementwise_affine=True)
    (2): ReLU()
    (3): Dropout(p=0.2, inplace=False)
    (4): Linear(in_features=32, out_features=32, bias=True)
  )
)
학습 가능한 파라미터 개수: 80,484
Train Set Size: 975896
Valid Set Size: 209119
Test Set Size: 209123
logits mean/std: -0.07878948003053665 0.9079765677452087
probs min/max/mean: 0.14175909757614136 0.8090457916259766 0.4859349727630615
y label mean: 0.3125
pos logits mean: 0.07326982915401459
neg logits mean: -0.1479073464870453
Valid preds label counts: tensor([17, 15])
…
[Epoch 4/100]
  [Train] LR: 0.001000 | Loss: 0.3969
  [Valid] Loss: 0.3925 | Acc: 0.8208, Prec: 0.8194, Rec: 0.8166, F1: 0.8178, AUC: 0.9025
Valid preds label counts: tensor([14, 18])
Valid true label counts: tensor([19, 13])

[Epoch 5/100]
  [Train] LR: 0.001000 | Loss: 0.3975
  [Valid] Loss: 0.3944 | Acc: 0.8197, Prec: 0.8173, Rec: 0.8196, F1: 0.8181, AUC: 0.9036
저장되어 있는 전처리된 데이터가 있습니다. 해당 데이터를 불러오는 중..
불러오기 완료
GinGru(
  (dropout_gin_out): Dropout(p=0.2, inplace=False)
  (dropout_after_gru): Dropout(p=0.2, inplace=False)
  (entity_embedding_layer): EntityEmbeddingBatch3(
    (embedding_layer): Embedding(1143, 32)
  )
  (gin_layers): ModuleList(
    (0): GINConv(nn=Sequential(
      (0): Linear(in_features=33, out_features=32, bias=True)
      (1): LayerNorm((32,), eps=1e-05, elementwise_affine=True)
      (2): ReLU()
      (3): Dropout(p=0.2, inplace=False)
      (4): Linear(in_features=32, out_features=32, bias=True)
    ))
    (1-2): 2 x GINConv(nn=Sequential(
      (0): Linear(in_features=32, out_features=32, bias=True)
      (1): LayerNorm((32,), eps=1e-05, elementwise_affine=True)
      (2): ReLU()
      (3): Dropout(p=0.2, inplace=False)
      (4): Linear(in_features=32, out_features=32, bias=True)
    ))
  )
  (gru_layer): GRU(96, 64)
  (classifier_b): Sequential(
    (0): Linear(in_features=64, out_features=128, bias=True)
    (1): ReLU()
    (2): Dropout(p=0.2, inplace=False)
    (3): Linear(in_features=128, out_features=1, bias=True)
  )
  (gin_nn_input): Sequential(
    (0): Linear(in_features=33, out_features=32, bias=True)
    (1): LayerNorm((32,), eps=1e-05, elementwise_affine=True)
    (2): ReLU()
    (3): Dropout(p=0.2, inplace=False)
    (4): Linear(in_features=32, out_features=32, bias=True)
  )
  (gin_nn): Sequential(
    (0): Linear(in_features=32, out_features=32, bias=True)
    (1): LayerNorm((32,), eps=1e-05, elementwise_affine=True)
    (2): ReLU()
    (3): Dropout(p=0.2, inplace=False)
    (4): Linear(in_features=32, out_features=32, bias=True)
  )
)
학습 가능한 파라미터 개수: 80,516
Train Set Size: 975896
Valid Set Size: 209119
Test Set Size: 209123
logits mean/std: -0.6850706934928894 0.7427237033843994
probs min/max/mean: 0.11503974348306656 0.6957116723060608 0.3493744134902954
y label mean: 0.3125
pos logits mean: -0.6485036611557007
neg logits mean: -0.7016920447349548
저장되어 있는 전처리된 데이터가 있습니다. 해당 데이터를 불러오는 중..
불러오기 완료
GinGru(
  (dropout_gin_out): Dropout(p=0.2, inplace=False)
  (dropout_after_gru): Dropout(p=0.2, inplace=False)
  (entity_embedding_layer): EntityEmbeddingBatch3(
    (embedding_layer): Embedding(1143, 32)
  )
  (gin_layers): ModuleList(
    (0): GINConv(nn=Sequential(
      (0): Linear(in_features=33, out_features=32, bias=True)
      (1): LayerNorm((32,), eps=1e-05, elementwise_affine=True)
      (2): ReLU()
      (3): Dropout(p=0.2, inplace=False)
      (4): Linear(in_features=32, out_features=32, bias=True)
    ))
    (1): GINConv(nn=Sequential(
      (0): Linear(in_features=32, out_features=32, bias=True)
      (1): LayerNorm((32,), eps=1e-05, elementwise_affine=True)
      (2): ReLU()
      (3): Dropout(p=0.2, inplace=False)
      (4): Linear(in_features=32, out_features=32, bias=True)
    ))
  )
  (gru_layer): GRU(64, 64)
  (classifier_b): Sequential(
    (0): Linear(in_features=64, out_features=128, bias=True)
    (1): ReLU()
    (2): Dropout(p=0.2, inplace=False)
    (3): Linear(in_features=128, out_features=1, bias=True)
  )
  (gin_nn_input): Sequential(
    (0): Linear(in_features=33, out_features=32, bias=True)
    (1): LayerNorm((32,), eps=1e-05, elementwise_affine=True)
    (2): ReLU()
    (3): Dropout(p=0.2, inplace=False)
    (4): Linear(in_features=32, out_features=32, bias=True)
  )
  (gin_nn): Sequential(
    (0): Linear(in_features=32, out_features=32, bias=True)
    (1): LayerNorm((32,), eps=1e-05, elementwise_affine=True)
    (2): ReLU()
    (3): Dropout(p=0.2, inplace=False)
    (4): Linear(in_features=32, out_features=32, bias=True)
  )
)
학습 가능한 파라미터 개수: 74,371
Train Set Size: 975896
Valid Set Size: 209119
Test Set Size: 209123
logits mean/std: 0.2518714368343353 1.2319114208221436
probs min/max/mean: 0.08901786804199219 0.915072500705719 0.5584897994995117
y label mean: 0.3125
pos logits mean: -0.001969748642295599
neg logits mean: 0.3672538101673126
Valid preds label counts: tensor([16, 16])
…
🎉 New best validation loss: 0.3690. Saving model...

[Epoch 1/100]
  [Train] LR: 0.001000 | Loss: 0.4104
  [Valid] Loss: 0.3690 | Acc: 0.8365, Prec: 0.8345, Rec: 0.8343, F1: 0.8344, AUC: 0.9175
Valid preds label counts: tensor([16, 16])
Valid true label counts: tensor([19, 13])
🎉 New best validation loss: 0.3613. Saving model...

[Epoch 2/100]
  [Train] LR: 0.001000 | Loss: 0.3722
  [Valid] Loss: 0.3613 | Acc: 0.8382, Prec: 0.8374, Rec: 0.8340, F1: 0.8354, AUC: 0.9192
저장되어 있는 전처리된 데이터가 있습니다. 해당 데이터를 불러오는 중..
불러오기 완료
CtmpGIN(
  (entity_embedding_layer): EntityEmbeddingBatch3(
    (embedding_layer): Embedding(1143, 32)
  )
  (embed_los): EntityEmbeddingBatch3(
    (embedding_layer): Embedding(38, 8)
  )
  (gin_1): ModuleList(
    (0-1): 2 x GINConv(nn=Sequential(
      (0): Linear(in_features=32, out_features=32, bias=True)
      (1): LayerNorm((32,), eps=1e-05, elementwise_affine=True)
      (2): ReLU()
      (3): Linear(in_features=32, out_features=32, bias=True)
    ))
  )
  (gin_2): ModuleList(
    (0-1): 2 x GINEConv(nn=Sequential(
      (0): Linear(in_features=32, out_features=32, bias=True)
      (1): LayerNorm((32,), eps=1e-05, elementwise_affine=True)
      (2): ReLU()
      (3): Linear(in_features=32, out_features=32, bias=True)
    ))
  )
  (proj_ad): Linear(in_features=32, out_features=32, bias=True)
  (proj_dis): Linear(in_features=32, out_features=32, bias=True)
  (proj_merged): Linear(in_features=32, out_features=32, bias=True)
  (gated_fusion): GatedFusion(
    (score): Sequential(
      (0): Linear(in_features=96, out_features=96, bias=True)
      (1): ReLU()
      (2): Dropout(p=0.2, inplace=False)
      (3): Linear(in_features=96, out_features=3, bias=True)
    )
    (dropout): Dropout(p=0.2, inplace=False)
  )
  (classifier_b): Sequential(
    (0): Linear(in_features=32, out_features=64, bias=True)
    (1): ReLU()
    (2): Dropout(p=0.2, inplace=False)
    (3): Linear(in_features=64, out_features=1, bias=True)
  )
)
학습 가능한 파라미터 개수: 61,112
Train Set Size: 975896
Valid Set Size: 209119
Test Set Size: 209123
저장되어 있는 전처리된 데이터가 있습니다. 해당 데이터를 불러오는 중..
불러오기 완료
CtmpGIN(
  (entity_embedding_layer): EntityEmbeddingBatch3(
    (embedding_layer): Embedding(1143, 32)
  )
  (embed_los): EntityEmbeddingBatch3(
    (embedding_layer): Embedding(38, 8)
  )
  (gin_1): ModuleList(
    (0-1): 2 x GINConv(nn=Sequential(
      (0): Linear(in_features=32, out_features=32, bias=True)
      (1): LayerNorm((32,), eps=1e-05, elementwise_affine=True)
      (2): ReLU()
      (3): Linear(in_features=32, out_features=32, bias=True)
    ))
  )
  (gin_2): ModuleList(
    (0-1): 2 x GINEConv(nn=Sequential(
      (0): Linear(in_features=32, out_features=32, bias=True)
      (1): LayerNorm((32,), eps=1e-05, elementwise_affine=True)
      (2): ReLU()
      (3): Linear(in_features=32, out_features=32, bias=True)
    ))
  )
  (proj_ad): Linear(in_features=32, out_features=32, bias=True)
  (proj_dis): Linear(in_features=32, out_features=32, bias=True)
  (proj_merged): Linear(in_features=32, out_features=32, bias=True)
  (gated_fusion): GatedFusion(
    (score): Sequential(
      (0): Linear(in_features=96, out_features=96, bias=True)
      (1): ReLU()
      (2): Dropout(p=0.2, inplace=False)
      (3): Linear(in_features=96, out_features=3, bias=True)
    )
    (dropout): Dropout(p=0.2, inplace=False)
  )
  (classifier_b): Sequential(
    (0): Linear(in_features=32, out_features=64, bias=True)
    (1): ReLU()
    (2): Dropout(p=0.2, inplace=False)
    (3): Linear(in_features=64, out_features=1, bias=True)
  )
)
학습 가능한 파라미터 개수: 61,112
Train Set Size: 975896
Valid Set Size: 209119
Test Set Size: 209123
Valid preds label counts: tensor([14, 18])
Valid true label counts: tensor([19, 13])
🎉 New best validation loss: 0.3570. Saving model...

[Epoch 3/100]
  [Train] LR: 0.001000 | Loss: 0.3683
  [Valid] Loss: 0.3570 | Acc: 0.8436, Prec: 0.8420, Rec: 0.8408, F1: 0.8413, AUC: 0.9207
…
  [Train] LR: 0.000100 | Loss: 0.3528
  [Valid] Loss: 0.3490 | Acc: 0.8493, Prec: 0.8473, Rec: 0.8475, F1: 0.8474, AUC: 0.9216

--- Early Stopping activated. Learning terminated. ---

--- 학습 완료 ---
Valid preds label counts: tensor([21, 11])
Valid true label counts: tensor([21, 11])

[Test] Loss: 0.3488 | Acc: 0.8487, Prec: 0.8468, Rec: 0.8470, F1: 0.8469, AUC: 0.9218
저장되어 있는 전처리된 데이터가 있습니다. 해당 데이터를 불러오는 중..
불러오기 완료
GinGru(
  (dropout_gin_out): Dropout(p=0.2, inplace=False)
  (dropout_after_gru): Dropout(p=0.2, inplace=False)
  (entity_embedding_layer): EntityEmbeddingBatch3(
    (embedding_layer): Embedding(1143, 32)
  )
  (gin_layers): ModuleList(
    (0): GINConv(nn=Sequential(
      (0): Linear(in_features=33, out_features=32, bias=True)
      (1): LayerNorm((32,), eps=1e-05, elementwise_affine=True)
      (2): ReLU()
      (3): Dropout(p=0.2, inplace=False)
      (4): Linear(in_features=32, out_features=32, bias=True)
    ))
    (1): GINConv(nn=Sequential(
      (0): Linear(in_features=32, out_features=32, bias=True)
      (1): LayerNorm((32,), eps=1e-05, elementwise_affine=True)
      (2): ReLU()
      (3): Dropout(p=0.2, inplace=False)
      (4): Linear(in_features=32, out_features=32, bias=True)
    ))
  )
  (gru_layer): GRU(64, 64)
  (classifier_b): Sequential(
    (0): Linear(in_features=64, out_features=128, bias=True)
    (1): ReLU()
    (2): Dropout(p=0.2, inplace=False)
    (3): Linear(in_features=128, out_features=1, bias=True)
  )
  (gin_nn_input): Sequential(
    (0): Linear(in_features=33, out_features=32, bias=True)
    (1): LayerNorm((32,), eps=1e-05, elementwise_affine=True)
    (2): ReLU()
    (3): Dropout(p=0.2, inplace=False)
    (4): Linear(in_features=32, out_features=32, bias=True)
  )
  (gin_nn): Sequential(
    (0): Linear(in_features=32, out_features=32, bias=True)
    (1): LayerNorm((32,), eps=1e-05, elementwise_affine=True)
    (2): ReLU()
    (3): Dropout(p=0.2, inplace=False)
    (4): Linear(in_features=32, out_features=32, bias=True)
  )
)
학습 가능한 파라미터 개수: 74,371
Train Set Size: 975896
Valid Set Size: 209119
Test Set Size: 209123
logits mean/std: 0.7989285588264465 1.143006443977356
probs min/max/mean: 0.26949211955070496 0.9664691090583801 0.6491243839263916
y label mean: 0.3125
pos logits mean: 0.9953687787055969
neg logits mean: 0.7096375823020935
